Model: "sequential"
_________________________________________________________________
Layer (type)                 Output Shape              Param #   
=================================================================
conv2d (Conv2D)              (None, 28, 28, 6)         156       
_________________________________________________________________
max_pooling2d (MaxPooling2D) (None, 14, 14, 6)         0         
_________________________________________________________________
conv2d_1 (Conv2D)            (None, 14, 14, 16)        2416      
_________________________________________________________________
max_pooling2d_1 (MaxPooling2 (None, 7, 7, 16)          0         
_________________________________________________________________
conv2d_2 (Conv2D)            (None, 7, 7, 120)         48120     
_________________________________________________________________
flatten (Flatten)            (None, 5880)              0         
_________________________________________________________________
dense (Dense)                (None, 84)                494004    
_________________________________________________________________
dense_1 (Dense)              (None, 10)                850       
=================================================================
Total params: 545,546
Trainable params: 545,546
Non-trainable params: 0
_________________________________________________________________
---NN layer 0 weights---
(5, 5, 1, 6)
[[[[ … (6,)
[ 0.53310025 -0.03685299  0.6143083  -0.44852948 -0.6540466  -1.2552168 ]
---NN layer 1 weights---
---NN layer 2 weights---
(5, 5, 6, 16)
[[[[-1.72126770e-01  1.61898911e-01 -4.57035638e-02 ...  2.44072735e-01
…
